…
olumns = ['parameters', 'aic']\nprint(result_table.sort_values(by = 'aic', ascending=True).head())\nprint(best_model.summary())","metadata":{"_uuid":"6a9207379fba415afc4f91e9b034a548a1be3583","_kg_hide-input":true,"execution":{"iopub.status.busy":"2024-05-30T07:50:45.879946Z","iopub.execute_input":"2024-05-30T07:50:45.880262Z","iopub.status.idle":"2024-05-30T07:50:45.904932Z","shell.execute_reply.started":"2024-05-30T07:50:45.880211Z","shell.execute_reply":"2024-05-30T07:50:45.904245Z"},"trusted":true},"execution_count":74,"outputs":[{"name":"stdout","text":"      parameters          aic\n40  (2, 0, 2, 0)  1312.410259\n41  (2, 0, 2, 1)  1313.765417\n46  (2, 1, 2, 0)  1314.063597\n52  (2, 2, 2, 0)  1315.306534\n47  (2, 1, 2, 1)  1315.384819\n                                 Statespace Model Results                                 \n==========================================================================================\nDep. Variable:                     Weighted_Price   No. Observations:                  112\nModel:             SARIMAX(2, 1, 0)x(2, 1, 0, 12)   Log Likelihood                -651.205\nDate:                  
…
